Hyperparameters
Model name: CNN
Epoch number: 10
Batch size: 64
Learning rate: 5e-05
Weight decay: 0.0001
CNNClassifier(
  (model): Sequential(
    (0): Conv2d(3, 64, kernel_size=(3, 3), stride=(1, 1))
    (1): ReLU()
    (2): BatchNorm2d(64, eps=1e-05, momentum=0.1, affine=True, track_running_stats=True)
    (3): Conv2d(64, 64, kernel_size=(3, 3), stride=(2, 2))
    (4): ReLU()
    (5): BatchNorm2d(64, eps=1e-05, momentum=0.1, affine=True, track_running_stats=True)
    (6): Conv2d(64, 128, kernel_size=(3, 3), stride=(1, 1))
    (7): ReLU()
    (8): BatchNorm2d(128, eps=1e-05, momentum=0.1, affine=True, track_running_stats=True)
    (9): Conv2d(128, 128, kernel_size=(3, 3), stride=(2, 2))
    (10): ReLU()
    (11): BatchNorm2d(128, eps=1e-05, momentum=0.1, affine=True, track_running_stats=True)
    (12): Conv2d(128, 256, kernel_size=(3, 3), stride=(1, 1))
    (13): ReLU()
    (14): BatchNorm2d(256, eps=1e-05, momentum=0.1, affine=True, track_running_stats=True)
    (15): Conv2d(256, 256, kernel_size=(3, 3), stride=(2, 2))
    (16): ReLU()
    (17): BatchNorm2d(256, eps=1e-05, momentum=0.1, affine=True, track_running_stats=True)
    (18): Conv2d(256, 512, kernel_size=(3, 3), stride=(1, 1))
    (19): ReLU()
    (20): BatchNorm2d(512, eps=1e-05, momentum=0.1, affine=True, track_running_stats=True)
    (21): Conv2d(512, 512, kernel_size=(3, 3), stride=(2, 2))
    (22): ReLU()
    (23): BatchNorm2d(512, eps=1e-05, momentum=0.1, affine=True, track_running_stats=True)
    (24): Flatten(start_dim=1, end_dim=-1)
    (25): Linear(in_features=73728, out_features=120, bias=True)
    (26): ReLU()
    (27): Linear(in_features=120, out_features=84, bias=True)
    (28): ReLU()
    (29): Linear(in_features=84, out_features=53, bias=True)
    (30): Softmax(dim=1)
  )
)
Total parameters: 13551365
Trainable parameters: 13551365
CNNClassifier(
  (model): Sequential(
    (0): Conv2d(3, 64, kernel_size=(3, 3), stride=(1, 1))
    (1): ReLU()
    (2): BatchNorm2d(64, eps=1e-05, momentum=0.1, affine=True, track_running_stats=True)
    (3): Conv2d(64, 64, kernel_size=(3, 3), stride=(2, 2))
    (4): ReLU()
    (5): BatchNorm2d(64, eps=1e-05, momentum=0.1, affine=True, track_running_stats=True)
    (6): Conv2d(64, 128, kernel_size=(3, 3), stride=(1, 1))
    (7): ReLU()
    (8): BatchNorm2d(128, eps=1e-05, momentum=0.1, affine=True, track_running_stats=True)
    (9): Conv2d(128, 128, kernel_size=(3, 3), stride=(2, 2))
    (10): ReLU()
    (11): BatchNorm2d(128, eps=1e-05, momentum=0.1, affine=True, track_running_stats=True)
    (12): Conv2d(128, 256, kernel_size=(3, 3), stride=(1, 1))
    (13): ReLU()
    (14): BatchNorm2d(256, eps=1e-05, momentum=0.1, affine=True, track_running_stats=True)
    (15): Conv2d(256, 256, kernel_size=(3, 3), stride=(2, 2))
    (16): ReLU()
    (17): BatchNorm2d(256, eps=1e-05, momentum=0.1, affine=True, track_running_stats=True)
    (18): Conv2d(256, 512, kernel_size=(3, 3), stride=(1, 1))
    (19): ReLU()
    (20): BatchNorm2d(512, eps=1e-05, momentum=0.1, affine=True, track_running_stats=True)
    (21): Conv2d(512, 512, kernel_size=(3, 3), stride=(2, 2))
    (22): ReLU()
    (23): BatchNorm2d(512, eps=1e-05, momentum=0.1, affine=True, track_running_stats=True)
    (24): Flatten(start_dim=1, end_dim=-1)
    (25): Linear(in_features=73728, out_features=120, bias=True)
    (26): ReLU()
    (27): Linear(in_features=120, out_features=84, bias=True)
    (28): ReLU()
    (29): Linear(in_features=84, out_features=53, bias=True)
    (30): Softmax(dim=1)
  )
)
Total parameters: 13551365
Trainable parameters: 13551365
Accuracy: 0.33962264150943394
Balanced Accuracy: 0.33962264150943405
F1-score: 0.33962264150943394
Kappa: 0.32692307692307687
                   precision    recall  f1-score   support

     ace of clubs       0.00      0.00      0.00         5
  ace of diamonds       0.00      0.00      0.00         5
…
